蔡忠慧/week03/model.pth (torch, 83533 bytes, 5 tensors)

embedding.weight f4 [30, 20]
0.0 0.0 0.0 0.0 0.0 0.0 0.0 0.0
0.0 0.0 0.0 0.0 0.0 0.0 0.0 0.0
0.0 0.0 0.0 0.0 1.5849363 1.3300391 1.4165161 -1.0052211
2.2779095 1.6065041 1.0025156 -1.0280341 -1.07364 -0.47568554 0.6282413 -1.956873
-0.95544314 1.1758783 0.10669652 0.41202015 0.769699 -1.0087069 0.7317776 1.2066967
0.17520967 0.7316962 -0.50966495 -0.46141875 -0.5168941 1.0014035 -0.27280962 0.6282646
-0.087962285 0.7987773 -1.4439558 -0.51653516 0.9480555 -0.90934575 3.129178 -0.19811411
-0.5456463 1.1956728 1.8393911 1.2886178 -0.06496471 -0.4085315 -0.2698081 1.3887688
-0.37464252 0.59832925 -0.7733988 -1.4279032 0.8686943 2.1768832 -0.09254727 1.1524123
1.7736106 -0.08707244 1.0584294 -1.4418302 0.22604114 -1.5364888 -1.4565423 0.4710918
1.5717461 -1.1408271 1.5904394 -0.18626794 -1.1892625 -0.25254846 -0.14109305 0.66272336
-1.282643 -0.25554138 -0.31947634 0.07184467 1.0205871 -1.2164187 -0.2583996 -0.6516216
0.84352344 1.6222337 -0.33294097 -1.8799752 -0.23682886 0.7331395 1.6911854 2.4014354
0.38902083 -0.7281814 0.44619575 0.21360882 0.23454465 -1.4029256 -1.0678556 -0.8975945
-0.26382902 0.6170243 0.720982 0.6924191 0.9178832 -0.21072617 1.203464 1.5851198
1.2100241 0.9605071 0.5339859 1.0841489 -1.245581 0.19166374 -0.17133318 -1.0711666
-0.21468812 1.3328363 -1.1297315 -1.2766244 1.2874087 -0.9014642 1.2492243 -0.054992944
0.21069813 0.18061335 -1.167786 -0.6428875 3.2123919 0.2240148 -0.22574611 0.25324586
-1.0889419 -0.21597283 -0.14208463 0.7945437 0.38262656 -2.5878477 -1.7662234 2.5545397
0.6486078 0.48843217 0.84361917 0.7332113 -0.20020758 -0.5996995 -1.1916915 0.623254
-0.06365996 0.16721638 0.17286049 0.977624 -1.0958067 0.26774 -0.25766176 0.53367966
0.58189625 0.43209857 0.07507842 -0.8865757 -0.41182443 -0.36117977 1.587938 0.57898104
1.5138484 0.4409039 2.9297934 0.12813999 0.25863266 1.6900988 -0.4960358 -0.42742592
-1.2168663 0.81934315 0.6790121 1.3723309 0.9043976 -0.09307667 -1.0277678 1.0541365
0.14120913 0.0034011987 -0.512025 -0.21252672 -0.96828425 -2.090987 0.26469436 0.53070456
-0.26086378 1.8616234 -0.9439321 0.63406026 0.36243927 -0.8653844 -0.7593813 1.04957
0.67758864 -0.0792594 1.3720042 -0.9107647 -0.13957079 1.1313239 0.4685784 0.3992229
-1.424986 -0.60932446 0.8785235 0.79177666 1.9899812 -0.007380316 -1.265936 -0.20861302
-1.2832417 1.3331238 -1.2343078 -0.16141917 0.1894856 0.81974405 0.30270407 -2.1061814
0.41947472 0.7530714 -0.4512187 0.65300286 0.97070795 0.27587113 1.2979227 -1.6528776
-0.8443752 0.12174577 -0.3939563 0.81109667 -0.5396121 -1.8007351 -1.4439118 -0.06392487
0.9128536 -0.27704918 0.4412144 -0.8880131 1.4563082 0.48589194 -0.6178712 -0.80786335
00000000: 0000 0000 0000 0000 0000 0000 0000 0000
00000010: 0000 0000 0000 0000 0000 0000 0000 0000
00000020: 0000 0000 0000 0000 0000 0000 0000 0000
00000030: 0000 0000 0000 0000 0000 0000 0000 0000
00000040: 0000 0000 0000 0000 0000 0000 0000 0000
00000050: 31df ca3f b93e aa3f 6650 b53f 16ab 80bf
00000060: 45c9 1140 eda1 cd3f 6e52 803f 9f96 83bf
00000070: 096d 89bf 0e8d f3be 6cd4 203f d17a fabf
00000080: ec97 74bf 2e83 963f b483 da3d 4ef4 d23e
00000090: fe0a 453f 4f1d 81bf c755 3b3f 0a75 9a3f
000000a0: 2a6a 333e 7150 3b3f 6779 02bf 143f ecbe
000000b0: 2c53 04bf fd2d 803f b4ad 8bbe f3d5 203f
000000c0: 9225 b4bd ab7c 4c3f 8bd3 b8bf a63b 04bf
000000d0: c4b3 723f e2ca 68bf 7444 4840 6dde 4abe
000000e0: 7aaf 0bbf ce0b 993f 2b71 eb3f 6ef1 a43f
000000f0: 380c 85bd 0a2b d1be 4a24 8abe 2dc3 b13f
00000100: 25d1 bfbe 1b2c 193f 77fd 45bf 88c5 b6bf
00000110: c062 5e3f 0e52 0b40 6c89 bdbd 3f82 933f
00000120: ac05 e33f 0953 b2bd 9d7a 873f e48d b8bf
00000130: 5477 673e aaab c4bf fa6f babf f232 f13e
00000140: fa2e c93f 9f06 92bf 8593 cb3f 06bd 3ebe
00000150: c139 98bf 084e 81be b27a 10be 3da8 293f
00000160: a52d a4bf 52d6 82be 6792 a3be 4c23 933d
00000170: 99a2 823f 9cb3 9bbf f44c 84be acd0 26bf
00000180: 27f1 573f 5ba5 cf3f 3d77 aabe 07a3 f0bf
00000190: 4483 72be 08af 3b3f c378 d83f 1eb1 1940
000001a0: bd2d c73e 196a 3abf c573 e43e 45bc 5a3e
000001b0: 792c 703e 1193 b3bf 7eaf 88bf c1c8 65bf
000001c0: 9914 87be 4ef5 1d3f 4792 383f 6142 313f
000001d0: 65fa 6a3f 9ac8 57be 1c0b 9a3f 35e5 ca3f
000001e0: 12e2 9a3f cbe3 753f 4db3 083f 64c5 8a3f
000001f0: 336f 9fbf 8043 443e f771 2fbe fd1b 89bf
00000200: 34d7 5bbe 619a aa3f 0b9b 90bf 6e68 a3bf
00000210: cfc9 a43f 5cc6 66bf 95e6 9f3f 4840 61bd
00000220: 40c1 573e b5f2 383e 037a 95bf 4694 24bf
00000230: d497 4d40 2364 653e fd29 67be 71a9 813e
00000240: 7362 8bbf fb27 5dbe a27e 11be 3767 4b3f
00000250: a1e7 c33e 4c9f 25c0 9c13 e2bf 947d 2340
00000260: 290b 263f c813 fa3e 6df7 573f bcb3 3b3f
00000270: 3703 4dbe e885 19bf 5989 98bf 938d 1f3f
00000280: 2760 82bd c53a 2b3e 5702 313e 9145 7a3f
00000290: 6543 8cbf 3815 893e 3eec 83be 3b9f 083f
000002a0: 27f7 143f 063c dd3e b7c2 993d a0f6 62bf
000002b0: a7da d2be 8eec b8be 8d41 cb3f 1a38 143f
000002c0: c9c5 c13f 28be e13e bc81 3b40 2137 033e
000002d0: 806b 843e 2855 d83f 68f8 fdbe 92d7 dabe
000002e0: 46c2 9bbf 79c0 513f bdd3 2d3f 8aa8 af3f
000002f0: 9a86 673f fb9e bebd e58d 83bf f2ed 863f
00000300: 2099 103e a5e6 5e3b 1214 03bf 9ba0 59be
00000310: 7ae1 77bf bbd2 05c0 0586 873e 41dc 073f
00000320: f08f 85be ad49 ee3f 89a5 71bf c651 223f
00000330: a491 b93e d589 5dbf d066 42bf 4f58 863f
00000340: 7376 2d3f c152 a2bd d59d af3f e027 69bf
00000350: a5eb 0ebe 39cf 903f 82e9 ef3e f266 cc3e
00000360: f165 b6bf b0fc 1bbf ebe6 603f e0b1 4a3f
00000370: b4b7 fe3f 94d6 f1bb 310a a2bf a79e 55be
00000380: 4441 a4bf cda3 aa3f ccfd 9dbf 114b 25be
00000390: 8308 423e bfda 513f 07fc 9a3e adcb 06c0
000003a0: 64c5 d63e 4ac9 403f 2306 e7be 322b 273f
000003b0: 5180 783f fb3e 8d3e 5522 a63f 7e91 d3bf
000003c0: f928 58bf d955 f93d a4b4 c9be 08a4 4f3f
000003d0: 0524 0abf 7d7e e6bf 1ad2 b8bf 0beb 82bd
000003e0: c6b0 693f 64d9 8dbe dbe6 e13e d454 63bf
000003f0: 4f68 ba3f d4c6 f83e cf2c 1ebf 22d0 4ebf

rnn.weight_ih_l0 f4 [128, 20]
0.08448706 0.02974831 0.129297 -0.11522206 0.1289425 0.15310426 0.014437534 -0.04210274
-0.11283078 0.013182184 0.06767347 -0.064863645 -0.13361248 0.021076001 -0.06963229 -0.09689282
-0.075426966 0.024662588 -0.017718889 0.101434276 -0.018613925 -0.08286426 -0.124047406 0.027487122
0.012724469 -0.14677909 -0.044463567 0.032854795 0.15311687 0.01177886 -0.060991593 0.060329143
0.010358331 -0.049960192 -0.07280936 -0.04036706 0.009119293 0.04580481 -0.008468512 -0.09589041
-0.09032644 0.04615443 -0.028688578 0.04123309 0.025387555 -0.052168686 -0.051282458 0.13344859
0.09389622 0.003624554 0.011458439 0.023581386 -0.014011161 -0.13373125 0.021949241 0.078621835
0.06526023 -0.002487169 -0.0042469096 -0.06199736 -0.06605963 0.007995261 -0.11568533 0.06169169
-0.017195536 -0.0031839502 -0.011838761 0.14650153 -0.0038233437 0.03397739 -0.03830808 -0.0033373558
0.025851587 -0.15620062 -0.04804727 -0.017863223 0.056461465 0.031327643 -0.0821897 -0.08488585
0.014944184 -0.06790937 0.11098619 -0.09606964 0.050196964 0.011948493 0.07521541 -0.11939193
-0.05561206 -0.06572322 0.106756024 0.07692635 -0.10823592 0.093612894 -0.04108124 -0.022334442
0.0035330502 -0.064540744 0.028634958 0.015165118 -0.0005094473 0.038123503 0.05697208 -0.060984217
0.10046342 0.00072743976 0.05277437 -0.08601615 -0.04624131 0.05200022 0.026889546 0.067192696
-0.077679336 0.16419332 -0.06825809 -0.05971619 -0.0038905959 -0.077345744 -0.060629196 0.026192471
0.013975986 0.09969262 0.041872825 -0.091632135 -0.03218922 -6.940784e-05 0.040842384 -0.10726727
-0.0015530327 -0.06376869 -0.029984025 -0.07326146 0.09780549 -0.014775764 -0.11982244 0.05848806
-0.00012405736 0.071671695 0.051591255 0.051861502 0.13660556 0.0776027 0.14989659 -0.18487391
0.11034058 0.13880694 0.025481561 -0.16118494 -0.17921296 -0.107078776 -0.0066592013 -0.06821473
-0.1638301 0.1206399 0.024376819 -0.074764036 0.00070758443 -0.03874452 -0.023036571 0.11926922
0.07839297 -0.010978068 0.09234193 -0.040481165 0.07638129 0.112900175 -0.071569815 -0.046108276
-0.014790291 0.060479004 0.031527646 -0.05954936 -0.06471456 0.078569494 0.0861748 -0.034405828
-0.090734005 -0.011240128 -0.011232278 0.019251036 -0.040584628 0.11259646 -0.03942564 0.08509166
-0.012333113 0.047563747 0.041107107 -0.091433324 0.042155847 -0.01754438 0.04003621 -0.050907053
0.12156972 0.034461707 -0.021981098 0.014188063 0.08610781 -0.016754309 0.04723905 0.049829047
-0.026214538 -0.049398966 -0.14865905 0.14054084 -0.054472953 -0.09436405 -0.1172162 0.11776881
0.12834907 0.0029677942 -0.059840105 0.07537248 0.09527236 -0.104695916 -0.020032654 0.070933074
-0.00469759 0.076456465 0.04124927 -0.029351318 0.05890219 -0.06283758 0.12335799 -0.068137854
0.08116627 0.1000263 -0.014210467 -0.15099588 0.007137459 0.0035236543 0.10778576 -0.054124873
-0.0060999026 0.08021747 -0.04745983 -0.10488658 -0.0926912 -0.03174356 0.044272717 0.056939688
0.010709951 0.0005914596 -0.058644924 0.10817228 -0.10819195 -0.014544213 0.010617746 0.079571694
0.007845557 0.009941543 -0.06910118 0.07839263 0.0785871 -0.052682023 -0.04738734 0.11198229
00000000: 8d07 ad3d bab2 f33c 6f66 043e 8bf9 ebbd
00000010: 8109 043e 5dc7 1c3e 688b 6c3c ec73 2cbd
00000020: d313 e7bd 16fa 573c 6398 8a3d 3bd7 84bd
00000030: b6d1 08be 94a7 ac3c 609b 8ebd be6f c6bd
00000040: 7479 9abd 3209 ca3c 3427 91bc c6bc cf3d
00000050: 3b7c 98bc bdb4 a9bd 910c febd ac2c e13c
00000060: 4b7a 503c 424d 16be 6e1f 36bd c092 063d
00000070: abca 1c3e 1ffc 403c 52d2 79bd b11b 773d
00000080: fdb5 293c 0fa3 4cbd 131d 95bd ee57 25bd
00000090: 1669 153c d39d 3b3d 84bf 0abc 3162 c4bd
000000a0: 12fd b8bd 6d0c 3d3d 4f04 ebbc 07e4 283d
000000b0: 90f9 cf3c d5ae 55bd 8e0d 52bd bfa6 083e
000000c0: a94c c03d ed89 6d3b 2dbc 3b3c c02d c13c
000000d0: 128f 65bc d8f0 08be e5ce b33c 7c04 a13d
000000e0: 28a7 853d c6ff 22bb a929 8bbb f2f0 7dbd
000000f0: 454a 87bd 8efe 023c 6eec ecbd 6db0 7c3d
00000100: a7dd 8cbc d2a9 50bb 5df7 41bc 7f04 163e
00000110: 1091 7abb e02b 0b3d efe8 1cbd 8ab7 5abb
00000120: b5c6 d33c 0ef3 1fbe 37cd 44bd e555 92bc
00000130: 2344 673d 6a51 003d 1353 a8bd a2d8 adbd
00000140: 73d8 743c 1114 8bbd ba4c e33d 29c0 c4bd
00000150: 559b 4d3d 9dc3 433c 890a 9a3d c283 f4bd
00000160: 79c9 63bd e599 86bd e7a2 da3d 908b 9d3d
00000170: cbaa ddbd 1eb8 bf3d cd44 28bd b8f6 b6bc
00000180: bf8a 673b f02d 84bd dc93 ea3c 1d77 783c
00000190: 6e8c 05ba 6427 1c3d 8e5b 693d 96ca 79bd
000001a0: c4bf cd3d a8b1 3e3a f029 583d 3c29 b0bd
000001b0: 8767 3dbd 2ffe 543d 7747 dc3c 539c 893d
000001c0: 5816 9fbd 4b22 283e e6ca 8bbd f798 74bd
000001d0: 5ef9 7ebb 7267 9ebd 5256 78bd 9891 d63c
000001e0: 89fb 643c a52b cc3d d782 2b3d a1a9 bbbd
000001f0: d8d8 03bd 0d8f 91b8 584a 273d f1ae dbbd
00000200: 218f cbba 2999 82bd 0fa1 f5bc 1b0a 96bd
00000210: 3f4e c83d 0c16 72bc 7865 f5bd 2d91 6f3d
00000220: 6515 02b9 9cc8 923d 5a51 533d ba6c 543d
00000230: 54e2 0b3e 2aee 9e3d 7e7e 193e 964f 3dbe
00000240: 3efa e13d 6823 0e3e b5be d03c aa0d 25be
00000250: 9a83 37be 1e4c dbbd 6e35 dabb 2ab4 8bbd
00000260: 14c3 27be 0d12 f73d e5b1 c73c e31d 99bd
00000270: 307d 393a 93b2 1ebd 31b7 bcbc 6c43 f43d
00000280: 7e8c a03d 5bdd 33bc c41d bd3d 94cf 25bd
00000290: cb6d 9c3d 3538 e73d 3293 92bd 08dc 3cbd
000002a0: fa52 72bc d5b8 773d 2223 013d 08ea 73bd
000002b0: 1189 84bd 0be9 a03d 6a7c b03d 20ed 0cbd
000002c0: c0d2 b9bd 8428 38bc 9707 38bc 59b4 9d3c
000002d0: 113c 26bd f998 e63d c87c 21bd 8944 ae3d
000002e0: d310 4abc 34d2 423d ed5f 283d 6541 bbbd
000002f0: 9cab 2c3d 3bb9 8fbc 02fd 233d ea83 50bd
00000300: 8cf9 f83d b827 0d3d b411 b4bc 0d75 683c
00000310: 4b59 b03d 5540 89bc bc7d 413d 8b19 4c3d
00000320: dfbf d6bc 9256 4abd 143a 18be f0e9 0f3e
00000330: 081f 5fbd f041 c1bd 0c0f f0bd c630 f13d
00000340: f06d 033e 537f 423b e61a 75bd e35c 9a3d
00000350: 281e c33d d06a d6bd 851b a4bc 5c45 913d
00000360: 3eee 99bb 3595 9c3d fff4 283d 2d72 f0bc
00000370: 6c43 713d fdb0 80bd 1da3 fc3d dc8b 8bbd
00000380: 803a a63d 97da cc3d 05d3 68bc aa9e 1abe
00000390: 58e1 e93b 1ced 663b c8be dc3d 0bb2 5dbd
000003a0: b1e1 c7bb 0f49 a43d 3d65 42bd c6ce d6bd
000003b0: e2d4 bdbd 8905 02bd 4f57 353d 9739 693d
000003c0: ca78 2f3c 2f0c 1b3a a935 70bd 6e89 dd3d
000003d0: be93 ddbd da4a 6ebc 0ef6 2d3c 7cf6 a23d
000003e0: a78a 003c dbe1 223c eb84 8dbd 518c a03d
000003f0: 46f2 a03d 1bc9 57bd 3a19 42bd f956 e53d

rnn.weight_hh_l0 f4 [128, 128]
-0.08345899 0.010657135 -0.10950476 0.044707786 0.06771184 0.03347451 -0.09054091 -0.10125117
-0.008854749 -0.009160293 -0.023309194 -0.0094258385 0.11670022 -0.025684156 -0.11955671 0.065247245
0.04841228 0.13810721 -0.018810842 -0.014911791 -0.056543007 0.094589315 0.08169218 -0.07226571
-0.053843696 0.054640196 -0.058018904 0.09916089 0.0321171 0.0034664539 -0.07645666 0.054724697
0.024044737 -0.034964025 -0.002010455 -0.110337704 0.013816105 0.071102835 0.020243105 0.0727456
0.086764544 -0.067755766 0.002199389 -0.018731983 -0.10375067 0.035003718 0.023584941 0.0018504345
0.09575604 -0.010667702 0.030993173 0.09176424 0.055551093 -0.08951791 0.060846876 -0.09690154
0.048103042 0.0933898 -0.071995586 0.100902416 0.020764668 0.020623336 -0.03512111 0.008529676
-0.0048498395 0.095800914 0.06156954 -0.02560613 0.107705414 0.03385122 -0.057036497 -0.05561982
0.03616444 -0.05899806 0.022936027 -0.10318859 0.11130242 -0.004562248 0.10087179 0.010628033
0.13366078 -0.025353787 0.00019872357 -0.04248758 -0.0173522 -0.09809984 0.096778736 -0.063097015
0.040832352 0.045624394 0.07300588 0.05831329 0.042671707 -0.048453767 -0.03554375 -0.0047416408
0.08478167 0.047698475 0.11971126 0.11704792 -0.011592606 0.016586196 0.053821336 -0.092502356
-0.0065836157 -0.06359668 0.08962975 -0.0010128102 0.08122414 -0.060060482 0.009712512 0.09937481
-0.00040952017 -0.0806564 0.006044972 0.015384776 -0.062194224 -0.0063296454 -0.10034816 0.019273348
-0.09628457 0.029707454 0.005488214 -0.006647302 -0.03956312 0.08678719 -0.04746386 -0.039292336
-0.090313196 -0.04465871 0.05019672 -0.04288262 -0.06742663 0.06696242 0.033289053 0.03045658
-0.036264576 0.05800161 0.066147454 -0.030565653 0.087527305 -0.04259196 0.054138206 -0.053702354
0.023742175 -0.07877044 -0.050814122 0.02782174 -0.0290242 -0.10306056 0.06532321 -0.034540147
-0.06264762 0.0071073743 0.032688312 -0.0027386586 0.0656011 -0.028414764 -0.07653238 -0.005259972
-0.109403335 -0.036865685 0.06339538 -0.04807795 -0.04116382 0.102589086 0.020537255 -0.031577688
0.034402527 -0.12891987 0.042437404 -0.07423679 0.02889331 -0.09715976 0.0997805 0.060485568
0.011197557 0.03183709 -0.1136606 0.04453713 0.044271436 0.0339766 0.022053227 -0.08737631
0.06861664 -0.07223342 0.018181331 -0.08364459 -0.0582959 -0.0744489 0.09722172 -0.088250674
0.02124068 -0.01570977 -0.06462199 0.06444169 0.06120839 -0.011434044 -0.02845205 -0.03667259
0.01817097 -0.08168152 0.018885955 0.03923062 0.07722082 -0.101690985 0.020142073 0.051476996
-0.10293987 -0.10336006 -0.04088282 -0.09944617 0.00035326622 0.10046826 -0.054066375 0.10105438
-0.040489122 -0.05933125 0.0075632134 0.043129068 -0.05928266 -0.09260949 -0.0204774 -0.08982781
-0.10129274 0.006912709 -0.009167053 0.089997865 0.043628678 -0.036296885 -0.05567326 0.08075623
0.14524923 0.02239664 -0.06662022 -0.032800857 -0.06111841 0.06389753 -0.025903113 0.08517787
-0.050361503 0.0094961515 0.06225325 0.0066779195 -0.02558673 -0.06457105 0.052900393 -0.1267961
-0.062011957 0.078887515 -0.08863251 0.0663673 -0.027037717 -0.03427728 0.06349528 0.074645035
00000000: 8cec aabd 449b 2e3c 0844 e0bd 831f 373d
00000010: 81ac 8a3d 911c 093d 836d b9bd c65c cfbd
00000020: 8213 11bc 0e15 16bc ecf2 bebc d56e 1abc
00000030: 8600 ef3d 9467 d2bc 26da f4bd 59a0 853d
00000040: f44b 463d fa6b 0d3e 3219 9abc 9650 74bc
00000050: a499 67bd 0bb8 c13d 3b4e a73d 0b00 94bd
00000060: 358b 5cbd 66ce 5f3d 3ba5 6dbd dd14 cb3d
00000070: 388d 033d 722d 633b 4f95 9cbd 0127 603d
00000080: 78f9 c43c 7036 0fbd d6c1 03bb bcf8 e1bd
00000090: f25c 623c 5d9e 913d ded4 a53c a5fb 943d
000000a0: 9cb1 b13d 89c3 8abd a023 103b d173 99bc
000000b0: 3b7b d4bd 0f60 0f3d 3535 c13c 478a f23a
000000c0: be1b c43d 96c7 2ebc 65e5 fd3c e4ee bb3d
000000d0: 8b89 633d 2a55 b7bd 933a 793d 5174 c6bd
000000e0: b207 453d 2743 bf3d 6c72 93bd eda5 ce3d
000000f0: aa1a aa3c 45f2 a83c 27db 0fbd 0ec0 0b3c
00000100: 67eb 9ebb 4533 c43d 5830 7c3d f2c3 d1bc
00000110: a894 dc3d 94a7 0a3d 1a9f 69bd 9cd1 63bd
00000120: 2a21 143d f3a7 71bd 56e4 bb3c 8a54 d3bd
00000130: 86f2 e33d e97e 95bb de95 ce3d 3421 2e3c
00000140: 5fde 083e bfb2 cfbc 7460 5039 7507 2ebd
00000150: 3326 8ebc 92e8 c8bd ee33 c63d 0239 81bd
00000160: d33f 273d a5e0 3a3d 1b84 953d ebd9 6e3d
00000170: 87c8 2e3d 7577 46bd 5396 11bd c45f 9bbb
00000180: 03a2 ad3d 7a5f 433d 2d2b f53d d2b6 ef3d
00000190: eaee 3dbc c6df 873c c373 5c3d e071 bdbd
000001a0: 5fbb d7bb fa3e 82bd cd8f b73d 45c0 84ba
000001b0: d858 a63d fb01 76bd 3a21 1f3c 0585 cb3d
000001c0: deb4 d6b9 2f2f a5bd e714 c63b 6d10 7c3c
000001d0: 5fbf 7ebd ea68 cfbb 5683 cdbd 24e3 9d3c
000001e0: d830 c5bd 0c5d f33c 7ad6 b33b 9cd1 d9bb
000001f0: f00c 22bd 7bbd b13d 7769 42bd 00f1 20bd
00000200: 20f6 b8bd 0dec 36bd 139b 4d3d b0a5 2fbd
00000210: f916 8abd 9823 893d 1a5a 083d 1480 f93c
00000220: 2a8a 14bd 1993 6d3d 5178 873d d264 fabc
00000230: 8441 b33d e874 2ebd 06c0 5d3d 00f7 5bbd
00000240: f37e c23c 6552 a1bd 7822 50bd 6bea e33c
00000250: 29c4 edbc 6a11 d3bd 2dc8 853d f879 0dbd
00000260: 654d 80bd fae4 e83b 2ee4 053d 117b 33bb
00000270: df59 863d 14c6 e8bc 02bd 9cbd d85b acbb
00000280: db0e e0bd 7900 17bd 70d5 813d 62ed 44bd
00000290: 659b 28bd 3a1a d23d bf3d a83c 9b57 01bd
000002a0: aae9 0c3d 9203 04be d8d2 2d3d 7509 98bd
000002b0: aab1 ec3c b2fb c6bd b859 cc3d b7bf 773d
000002c0: f575 373c 9c67 023d e3c6 e8bd 916c 363d
000002d0: f755 353d 0c2b 0b3d f8a8 b43c 5af2 b2bd
000002e0: e286 8c3d 1eef 93bd 04f1 943c db4d abbd
000002f0: aec7 6ebd aa78 98bd 2e1c c73d c5bc b4bd
00000300: ef00 ae3c c7b1 80bc 8958 84bd 01fa 833d
00000310: a6b5 7a3d db55 3bbc 4614 e9bc ff35 16bd
00000320: 49db 943c a448 a7bd b8b6 9a3c 49b0 203d
00000330: f325 9e3d 5d43 d0bd fd00 a53c 8bd9 523d
00000340: 23d2 d2bd 70ae d3bd be74 27bd 6faa cbbd
00000350: 9736 b939 4ec2 cd3d b474 5dbd 99f5 ce3d
00000360: ecd7 25bd 5305 73bd d5d4 f73b 1ba8 303d
00000370: 60d2 72bd 0baa bdbd 38c0 a7bc a5f7 b7bd
00000380: 9172 cfbd 0284 e23b 6831 16bc cd50 b83d
00000390: fcb3 323d 0bac 14bd a509 64bd 8663 a53d
000003a0: 37bc 143e 2979 b73c 2f70 88bd 315a 06bd
000003b0: 4c57 7abd b5dc 823d c432 d4bc bc71 ae3d
000003c0: dd47 4ebd bf95 1b3c 44fd 7e3d 73d2 da3b
000003d0: 439b d1bc d43d 84bd 15ae 583d d6d6 01be
000003e0: 4000 7ebd c78f a13d f684 b5bd 94eb 873d
000003f0: 347e ddbc 5566 0cbd d009 823d 7fdf 983d

classify.weight f4 [7, 128]
0.11976473 -0.014003815 -0.06106115 0.106495604 0.13254039 -0.1855421 -0.025295686 0.053804625
0.037578773 -0.1520086 0.035121355 0.14582708 -0.04530207 -0.18837595 0.0053180605 -0.036438193
-0.08522586 -0.14187305 -0.27323368 0.156266 -0.10928535 -0.08698481 -0.12029555 -0.012477545
0.053682 0.14459969 -0.15514478 -0.23620424 -0.082520455 0.02826132 -0.18018045 -0.13370831
-0.119098276 0.19859242 -0.16731909 0.045199536 -0.13029882 0.06151538 0.19094577 0.0740321
0.030008752 -0.050295454 0.16637875 0.1426287 -0.07853937 -0.17510542 0.13883749 -0.26432404
-0.13479781 0.08054489 0.109063774 -0.031308454 -0.039741125 0.13439208 0.10900424 0.07695305
-0.075253196 -0.004306988 0.16213185 0.1948878 0.16428602 -0.14430451 0.121137455 -0.12068234
-0.013154183 0.10428966 -0.07786757 0.097170785 -0.04246779 -0.15949269 -0.10335536 -0.13255548
-0.16764379 -0.21537209 -0.048364982 -0.100212745 0.09390382 0.0027384092 -0.054991223 0.11192715
-0.25726277 0.054692674 0.16594057 -0.20127352 0.095334314 -0.17329238 -0.093554765 0.016202973
0.0025005797 -0.19318643 0.08154881 0.1491429 -0.042579208 -0.17074378 -0.05289023 0.10343354
-0.084219866 0.12764905 -0.06586063 -0.15780886 -0.08591588 0.0023393598 -0.27776542 -0.06566637
0.0064176833 -0.09621952 0.027927563 0.07847908 -0.03567627 0.19687876 0.008011656 0.11237547
-0.21861885 -0.0041669346 0.1286655 0.099512264 0.12966718 -0.007421158 0.19121742 -0.15515508
0.060383067 0.10229845 0.099540904 0.09827328 -0.23268354 0.13627827 -0.06720456 0.14452274
0.09881784 -0.10140499 -0.13200535 0.21993099 -0.044338513 0.20974794 -0.0345021 0.06774249
0.050799675 -0.10345232 -0.056617077 0.1486771 0.053708453 -0.04711984 -0.1593263 0.12832525
0.14611782 0.13949695 -0.110492855 -0.15215509 -0.09078404 0.12494797 -0.0996826 -0.10529465
0.1360564 -0.11958091 -0.1537531 0.0139711015 -0.030441877 0.08651848 -0.052278824 0.019898651
-0.17668302 0.048785746 0.14170621 0.114503615 0.050730497 0.030822542 0.19491516 -0.15009937
-0.004997664 0.11166377 -0.1398092 0.015137746 -0.0011773799 -0.11170628 -0.03377732 0.13812725
-0.18620409 0.10274337 0.055618994 -0.24229227 0.12378946 0.19454052 -0.17638642 0.10118713
-0.040640935 0.09417523 -0.048944205 0.08325594 0.011004429 -0.101584874 0.06721522 0.10909174
-0.09938919 0.080683015 0.015961489 0.019620595 -0.0059569287 -0.14851613 -0.2192507 0.13966633
-0.045405578 -0.058052316 0.095864944 0.038903426 -0.18467262 0.20268224 0.13740489 -0.032271873
0.028695611 -0.010854177 0.1353471 -0.06667918 -0.065792635 -0.042657316 -0.16564308 0.015269859
0.23173378 -0.04530184 0.1594267 0.056114912 -0.0038361186 0.021885155 -0.056115597 -0.09395176
0.3081504 -0.06335906 -0.06047448 -0.10732448 0.15513548 0.19099452 -0.0400659 -0.24145125
0.060913727 -0.21778017 0.079317465 0.17346574 -0.062941946 0.015688688 0.142923 -0.080333546
0.013984944 -0.12240033 -0.10199916 -0.17907238 -0.07544223 -0.32987782 0.1344554 -0.15010907
0.18347721 -0.07996815 0.022729237 0.13161005 0.0121215 -0.23551333 -0.17427765 -0.19634752
00000000: 3647 f53d 4270 65bc 421b 7abd 5e1a da3d
00000010: abb8 073e c0fe 3dbe e638 cfbc 3d62 5c3d
00000020: 33ec 193d 24a8 1bbe 69db 0f3d b253 153e
00000030: aa8e 39bd a0e5 40be 2043 ae3b 3740 15bd
00000040: e58a aebd 2b47 11be 49e5 8bbe 3204 203e
00000050: ffd0 dfbd 1825 b2bd 835d f6bd 9e6e 4cbc
00000060: a8e1 5b3d f111 143e 46de 1ebe 86df 71be
00000070: 7c00 a9bd 4984 e73c 3981 38be d5ea 08be
00000080: cce9 f3bd d05b 4b3e b255 2bbe 2623 393d
00000090: 0e6d 05be 8df7 7b3d 4a87 433e 249e 973d
000000a0: ead4 f53c 9b02 4ebd 315f 2a3e 420d 123e
000000b0: 40d9 a0bd d64e 33be 6a2b 0e3e 7b55 87be
000000c0: 7008 0abe b8f4 a43d d45c df3d 4b3d 00bd
000000d0: 97c7 22bd 149e 093e 9d3d df3d 9099 9d3d
000000e0: 591e 9abd a221 8dbb e405 263e ab90 473e
000000f0: 983a 283e 90c4 13be ea16 f83d 4d28 f7bd
00000100: a484 57bc d195 d53d 0879 9fbd 7a01 c73d
00000110: b5f2 2dbd 0d52 23be faab d3bd a0bc 07be
00000120: d0aa 2bbe 808a 5cbe 5c1a 46bd 573c cdbd
00000130: a550 c03d e276 333b 7a3e 61bd 103a e53d
00000140: f2b7 83be 6d05 603d 53ec 293e a51a 4ebe
00000150: a33e c33d 8f73 31be a499 bfbd 19bc 843c
00000160: c4e0 233b aad2 45be 1003 a73d ebb8 183e
00000170: 8967 2ebd 75d7 2ebe 6da3 58bd f7d4 d33d
00000180: 777b acbd 6fb6 023e f0e1 86bd a598 21be
00000190: aaf4 afbd f24f 193b 4537 8ebe 177c 86bd
000001a0: 6e4b d23b bd0e c5bd 58c8 e43c a4b9 a03d
000001b0: 4821 12bd 969a 493e 5243 033c 1c25 e63d
000001c0: 9fdd 5fbe c88a 88bb e4c0 033e 16cd cb3d
000001d0: 79c7 043e 2f2d f3bb 80ce 433e f9e0 1ebe
000001e0: 3c54 773d da81 d13d 1adc cb3d 8043 c93d
000001f0: 9844 6ebe 888c 0b3e 8ba2 89bd c5fd 133e
00000200: 0261 ca3d 6bad cfbd 692c 07be 9735 613e
00000210: 4d9c 35bd 2ac8 563e 1352 0dbd 93bc 8a3d
00000220: 5213 503d cfde d3bd 4fe7 67bd cf3e 183e
00000230: 65fd 5b3d bc00 41bd 6f26 23be b267 033e
00000240: e99f 153e 4ad8 0e3e 144a e2bd 8bce 1bbe
00000250: fcec b9bd b9e4 ff3d 6426 ccbd b9a4 d7bd
00000260: 5e52 0b3e d6e6 f4bd 7471 1dbe 0ce7 643c
00000270: 3e61 f9bc 9a30 b13d 5222 56bd 7f02 a33c
00000280: 65ec 34be 90d3 473d 6f1b 113e df80 ea3d
00000290: c8ca 4f3d 8e7f fc3c d797 473e a6b3 19be
000002a0: 72c3 a3bb faaf e43d 252a 0fbe 4f04 783c
000002b0: 5052 9aba 43c6 e4bd 165a 0abd 3b71 0d3e
000002c0: 49ac 3ebe 1e6b d23d bed0 633d 771b 78be
000002d0: 5485 fd3d a135 473e a49e 34be 333b cf3d
000002e0: 1c77 26bd f1de c03d b879 48bd 1782 aa3d
000002f0: ec4b 343c bb0b d0bd 22a8 893d 7d6b df3d
00000300: 8f8c cbbd 233d a53d abc1 823c 5fbb a03c
00000310: 5732 c3bb 9d14 18be 4183 60be b104 0f3e
00000320: 33fb 39bd 44c8 6dbd d754 c43d 3359 1f3d
00000330: d21a 3dbe ef8b 4f3e deb3 0c3e 832f 04bd
00000340: 0f13 eb3c b8d5 31bc 6e98 0a3e 188f 88bd
00000350: 4abe 86bd 70b9 2ebd 579e 29be 6e2e 7a3c
00000360: 9f4b 6d3e 6c8e 39bd c140 233e c0d8 653d
00000370: 6467 7bbb 7f48 b33c 78d9 65bd c869 c0bd
00000380: e4c5 9d3e 65c2 81bd 17b4 77bd f0cc dbbd
00000390: d6db 1e3e 1194 433e 241c 24bd ff3e 77be
000003a0: ac80 793d c401 5fbe 3271 a23d 01a1 313e
000003b0: b5e7 80bd 9085 803c 685a 123e ea85 a4bd
000003c0: 1b21 653c 06ad fabd f0e4 d0bd c05e 37be
000003d0: 7581 9abd bfe5 a8be adae 093e 31b6 19be
000003e0: 73e1 3b3e 57c6 a3bd aa32 ba3c c9c4 063e
000003f0: 4299 463c 682a 71be d775 32be 530f 49be

classify.bias f4 [7]
0.0020083925 -0.024811191 -0.19841702 -0.10241883 -0.18863355 -0.2793247 0.0039643897
00000000: 3c9f 033b d740 cbbc d52d 4bbe f7c0 d1bd
00000010: 2729 41be a603 8fbe b6e7 813b
